backend/appverte/back/recommender/Embedding_Dot_Bias_Recommender_model3.pkl (torch, 66431 bytes, 4 tensors)

weight f4 [51, 40]
-0.0005110626 -0.0060092825 -0.011435758 -0.011225126 -0.0079398 -0.005690429 0.0005490035 -0.0076405583
-0.014173421 -0.008966342 -0.00069912313 0.0049405415 0.0018697386 0.011608887 0.0063421004 -0.004321961
-0.014102139 0.018663043 -0.009814118 -0.00957372 0.017732665 0.015150397 -0.010457904 0.0137487175
-0.0023202256 0.008940822 -0.0011944529 0.00784834 -0.005613509 -0.0047847503 -0.0075176195 -0.004765066
0.007129166 -0.019491466 -0.0060264976 -0.007935997 0.00023597652 -0.0071600745 0.009306002 0.0011266755
-0.022538481 -0.06836745 -0.013558016 0.041261062 -0.016599083 -0.029535536 0.02891256 0.06223333
0.026336413 0.032159485 0.056894284 -0.001400101 0.06736379 -0.0070909266 -0.045214325 0.029104557
0.016696157 -0.012174216 0.03753147 0.018994411 -0.030620651 -0.058643565 -0.015636455 0.056052577
0.053722024 -0.05331756 0.04850102 -0.04792604 0.029146075 0.026918765 0.0477334 -0.052932967
0.022482317 -0.01229477 0.005757841 -0.0580449 -0.034178387 0.052119583 0.04870456 -0.038145497
0.031437173 -0.036388904 -0.044084687 0.008230705 0.030697625 -0.0039018062 -0.041055813 0.05308653
0.004073253 -0.045274097 0.031422995 0.03226385 0.032390192 -0.035994895 0.031383134 0.003148105
0.014311675 -0.012317432 -0.037302293 0.013684939 0.025338814 -0.019312922 0.02177411 0.009234879
0.022577731 0.0015612708 -0.023197843 0.0015717075 -0.045612093 0.05010306 0.00021025653 -0.036746606
-0.013821213 0.041908428 0.037740003 -0.008163029 0.040632 0.013562937 0.038107716 0.040469054
-0.005384117 0.0181424 0.015076368 0.025254533 -0.05655293 0.010987659 -0.065399624 -0.021588098
-0.053507507 -0.031757306 0.07575242 0.06560637 0.011852363 0.057092104 -0.05621138 -0.023290493
0.068143636 0.033131234 -0.012985452 -0.04141248 -0.07333612 0.0505159 -0.02510984 0.064188935
0.032542285 -0.01017518 -0.047032725 0.026673282 -0.06846797 0.020148491 -0.0072211465 -0.049525544
-0.05654705 -0.064433664 -0.011659649 -0.059105128 -0.022627681 0.055359248 -0.030063575 -0.029318338
0.07167387 0.0134228915 0.06722942 -0.003978084 0.02840362 -0.031461738 0.04458098 0.060445692
0.05439494 0.059221562 0.050041907 0.028798785 -0.044633362 -0.027468778 0.0008671313 -0.02422713
-0.0120639885 0.04529574 0.013033375 0.03490349 -0.06487357 0.066352636 -0.0329398 -0.057245716
-0.028481577 0.01689345 0.06603258 -0.054955244 -0.0014207265 -0.029872516 -0.056803834 0.06284161
0.010682987 -0.010659951 -0.027932163 -0.029326836 0.0320593 -0.03900542 0.014752724 0.029236438
-0.062110767 0.042977 -0.04755621 -0.03937803 -0.038086172 -0.04016428 -0.020886533 -0.008153414
0.06252938 -0.04703938 -0.05204864 -0.043326464 0.0015600814 -0.056436993 -0.056427803 0.029994292
-0.025573334 0.03038622 -0.052388467 0.0086237695 0.044319127 -0.07247495 -0.06988729 -0.034415536
0.031801365 -0.07381976 -0.06133282 0.017763259 -0.0467705 0.013769297 0.022799201 -0.012131531
0.04685414 -0.056271337 0.025607908 -0.04795647 -0.015372473 0.027514493 -0.06660847 0.03450072
-0.025134362 -0.046315216 -0.046430003 0.0037315174 -0.0071262955 -0.021827778 0.047622647 -0.048442736
-0.010993685 0.010095416 -0.026369771 0.017383706 -0.043488786 0.05175699 0.045014057 0.0065143174
00000000: d5f8 05ba 84e9 c4bb 0c5d 3bbc 97e9 37bc
00000010: ef15 02bc c776 babb 00eb 0f3a a65d fabb
00000020: a337 68bc 90e7 12bc 5c45 37ba 44e4 a13b
00000030: 0412 f53a 3433 3e3c 65d1 cf3b 3d9f 8dbb
00000040: a80c 67bc 3de3 983c 65cb 20bc 18db 1cbc
00000050: 1844 913c 5f39 783c a157 2bbc 4d42 613c
00000060: ed0e 18bb 877c 123c 308f 9cba 5396 003c
00000070: 87f1 b7bb 65c9 9cbb 5d56 f6bb 4524 9cbb
00000080: c79b e93b 91ac 9fbc ed79 c5bb fc05 02bc
00000090: 7770 7739 0f9f eabb 3478 183c f5ac 933a
000000a0: 9fa2 b8bc 3c04 8cbd 7122 5ebc 5c01 293d
000000b0: cdfa 87bc 82f4 f1bc 08da ec3c 60e8 7e3d
000000c0: 76bf d73c aab9 033d fb09 693d 9883 b7ba
000000d0: 07f6 893d 015b e8bb a832 39bd ae6c ee3c
000000e0: 61c6 883c 5d76 47bc 99ba 193d 2b9a 9b3c
000000f0: 29d8 fabc 3c34 70bd 0618 80bc 6397 653d
00000100: a00b 5c3d 8463 5abd 01a9 463d 184e 44bd
00000110: c0c3 ee3c be84 dc3c 1984 433d 3dd0 58bd
00000120: d62c b83c 0170 49bc 45ac bc3b 7dc0 6dbd
00000130: a3fe 0bbd 587b 553d 6f7e 473d 743e 1cbd
00000140: 44c4 003d 880c 15bd 2592 34bd 14da 063c
00000150: 9679 fb3c 72b5 7fbb 242a 28bd 4371 593d
00000160: ec78 853b 5571 39bd 66b5 003d 1927 043d
00000170: 94ab 043d 626f 13bd 9a8b 003d 7050 4e3b
00000180: 847b 6a3c 0ecf 49bc 4aca 18bd cb36 603c
00000190: 5893 cf3c 2236 9ebc 9e5f b23c e44d 173c
000001a0: eff4 b83c 8ea3 cc3a 6709 bebc c101 ce3a
000001b0: bfd3 3abd de38 4d3d 4f78 5c39 9c83 16bd
000001c0: 5e72 62bc 2ca8 2b3d 4395 1a3d 3abe 05bc
000001d0: bd6d 263d 1537 5e3c d616 1c3d e1c2 253d
000001e0: 3f6d b0bb 5f9f 943c df02 773c 98e2 ce3c
000001f0: 0ca4 67bd 9505 343c 3df0 85bd 86d9 b0bc
00000200: b02a 5bbd f313 02bd 1624 9b3d a25c 863d
00000210: 6a30 423c 69d9 693d e73d 66bd b4cb bebc
00000220: e48e 8b3d 9eb4 073d efc0 54bc 22a0 29bd
00000230: 3f31 96bd c3e9 4e3d 27b3 cdbc 7d75 833d
00000240: 0f4b 053d ccb5 26bc 63a5 40bd ed81 da3c
00000250: ef38 8cbd 730e a53c 5e9f ecbb 4cdb 4abd
00000260: e19d 67bd ccf5 83bd 1d08 3fbc 3818 72bd
00000270: b05d b9bc 61c0 623d e347 f6bc 032d f0bc
00000280: c0c9 923d b0eb 5b3c 94af 893d 965a 82bb
00000290: b5ae e83c 06de 00bd 8c9a 363d e795 773d
000002a0: 3bcd 5e3d 4f92 723d bef8 4c3d 6eeb eb3c
000002b0: 79d1 36bd 3406 e1bc 3250 633a f977 c6bc
000002c0: 09a8 45bc 0788 393d f089 553c f6f6 0e3d
000002d0: 6fdc 84bd e4e3 873d e2eb 06bd 7c7a 6abd
000002e0: 3252 e9bc 2264 8a3c 173c 873d c018 61bd
000002f0: ac37 baba 35b7 f4bc 23ab 68bd 1ab3 803d
00000300: b207 2f3c 13a7 2ebc fed1 e4bc d53e f0bc
00000310: 9d50 033d 26c4 1fbd 69b5 713c 4181 ef3c
00000320: dc67 7ebd a708 303d 4dca 42bd db4a 21bd
00000330: 3f00 1cbd 4d83 24bd 3c1a abbc e695 05bc
00000340: 670f 803d 5dac 40bd f430 55bd 1777 31bd
00000350: a57b cc3a 7a2a 67bd d720 67bd 97b6 f53c
00000360: 2b7f d1bc 86ec f83c 4a95 56bd b64a 0d3c
00000370: f987 353d bf6d 94bd 1121 8fbd 4ef7 0cbd
00000380: 2642 023d d02e 97bd 2038 7bbd 4184 913c
00000390: 6c92 3fbd 9e98 613c 64c5 ba3c 54c3 46bc
000003a0: 20ea 3f3d c67c 66bd adc7 d13c 016e 44bd
000003b0: d3dc 7bbc 1366 e13c 066a 88bd a150 0d3d
000003c0: 94e6 cdbc 06b5 3dbd 632d 3ebd 798c 743b
000003d0: b383 e9bb 2bd0 b2bc f70f 433d e46b 46bd
000003e0: db1e 34bc 3e67 253c 6b05 d8bc 4668 8e3c
000003f0: 4c21 32bd 23ff 533d a960 383d 0e76 d53b

weight f4 [174, 40]
-0.00053743756 0.01600632 -0.013045249 -0.00926698 0.0028748077 0.0023141399 0.0007506481 -3.4381606e-05
0.010531163 0.00347162 -0.0050636264 0.0042102896 0.008439475 -0.007947745 0.002256075 -0.016368616
-0.0022874717 0.017479971 -0.005258051 0.0135674495 -0.0043543247 0.0138429385 0.0070737624 0.0071619893
-0.004733063 -0.0053937123 0.00655965 -0.015364556 -0.0039402284 0.016647803 0.007596582 -0.0036006914
-0.01060373 -0.016118398 0.008959268 -0.0035047464 0.0065693213 -0.007155378 0.0028448019 0.007357685
0.0015598328 -0.037823394 -0.044773813 0.02889054 -0.044594977 -0.040927883 0.03626861 -0.008386947
-0.0438423 -0.043670703 0.015520501 0.030266114 -0.036141902 0.037027426 0.009814974 0.02729354
0.00980375 0.0043305564 -0.03259582 -0.042052437 -0.027412547 0.04745259 -0.02520376 0.02832476
-0.038412943 0.023666656 0.04175317 0.037727498 0.038129564 -0.046347383 0.012184486 -0.0032586565
0.037214026 0.031039009 0.03616884 -0.024644634 0.04430243 0.023384532 0.022910565 -0.035051472
0.021097504 -0.031129178 0.019660175 -0.052650608 0.023046825 0.026815128 0.03825651 -0.026187822
0.008450287 -0.037710518 0.046844136 0.023685874 -0.02753428 -0.010792941 -0.007951537 -0.025026213
-0.04029793 -0.01952824 -0.039271582 0.021492798 0.028958337 -0.036161676 -0.0581433 0.04429006
-0.037322856 0.045573767 0.027240861 0.01955957 -0.015256747 0.041699797 -0.046099793 -0.043696847
0.022915835 -4.8995484e-05 -0.011572975 -0.031978257 -0.030567866 0.005963726 -0.050736655 0.004342166
-0.01772585 0.033961575 0.018112537 0.052630566 0.001515083 0.028409522 -0.041262202 -0.026022624
0.019758211 0.05211726 0.041560993 0.035249814 -0.03585928 -0.025998233 0.025083259 -0.04710163
-0.011280784 -0.008773898 0.016102662 -0.042558122 0.009526821 0.017068652 -0.030921858 -0.03734523
0.021208094 -0.02115149 0.028884266 -0.050097737 -0.0071122227 0.003342314 0.041136883 0.013882756
0.017595941 0.014890142 -0.05047525 0.025797661 0.013129334 -0.011543965 0.0026063807 -0.04363373
-0.014258957 -0.0030291276 0.030429298 0.0051557506 0.023092657 0.008561498 -0.022406437 -0.026802326
0.06420021 -0.03910846 0.044289555 -0.04482624 0.03181474 -0.041697707 -0.06426958 -0.063782744
-0.06747342 0.01934824 -0.05580838 0.056344613 0.07344714 -0.002374465 -0.06568357 0.048426885
-0.06454093 0.041871943 -0.036179483 0.034136266 -0.023158064 -0.041088972 -0.021286787 -0.0046138344
-0.03548504 0.0045840014 -0.022614112 0.009468956 0.029176781 -0.0383726 0.000849999 -0.0048290803
0.03853146 -0.0028366859 0.034697 0.026497543 0.010858721 0.01625328 -0.026505416 0.032198653
-0.046480056 0.01442823 0.0298678 -0.039931793 0.022779204 -0.01407875 0.0011747628 0.005738981
0.020290675 0.043386173 0.00452275 0.031491686 0.019945603 -0.020713925 -0.03998873 -0.04714023
0.037752576 0.011500256 -0.039470725 0.017813109 0.031078154 0.03590297 -0.04330647 -0.03719325
0.0040581473 -0.03464415 -0.029494183 0.03260292 -0.0012228814 0.03183939 0.009636879 0.046294026
-0.049195774 -0.04471786 -0.052609943 -0.045416024 -0.033064377 0.019605374 0.017305763 0.036390558
-0.020191934 0.036155928 -0.052466575 -0.045409016 -0.051894423 -0.018526824 -0.058726188 0.053369563
00000000: d3e2 0cba b01f 833c bdbb 55bc 88d4 17bc
00000010: 4567 3c3b d3a8 173b 24c7 443a f834 10b8
00000020: e68a 2c3c 1e84 633b c7ec a5bb 78f6 893b
00000030: b945 0a3c 4237 02bc a8da 133b 7a17 86bc
00000040: 68e9 15bb 2832 8f3c bb4b acbb 024a 5e3c
00000050: b9ae 8ebb 7ecd 623c 05cb e73b 1faf ea3b
00000060: cf17 9bbb bdbd b0bb 55f2 d63b 9ebb 7bbc
00000070: 081d 81bb f960 883c c0ec f83b 94f9 6bbb
00000080: 44bb 2dbc bb0a 84bc e5c9 123c e3af 65bb
00000090: 7643 d73b a977 eabb db6f 3a3b bc18 f13b
000000a0: 4e73 cc3a b4ec 1abd bf64 37bd dbab ec3c
000000b0: 39a9 36bd ffa3 27bd 658e 143d 6869 09bc
000000c0: fc93 33bd 0de0 32bd b349 7e3c a4f0 f73c
000000d0: 8809 14bd 12aa 173d fcce 203c b496 df3c
000000e0: e89f 203c 57e7 8d3b 3283 05bd 2d3f 2cbd
000000f0: 4790 e0bc a65d 423d 1e78 cebc 5409 e83c
00000100: e456 1dbd 93e0 c13c 5f05 2b3d 2688 1a3d
00000110: bf2d 1c3d c1d6 3dbd 70a1 473c 2f8f 55bb
00000120: bc6d 183d 8545 fe3c c725 143d 8be3 c9bc
00000130: 7776 353d eb90 bf3c f0ae bb3c 2292 0fbd
00000140: acd4 ac3c 9e02 ffbc 600e a13c 2aa8 57bd
00000150: b2cc bc3c 66ab db3c dcb2 1c3d d887 d6bc
00000160: 1373 0a3c 5876 1abd a3df 3f3d e108 c23c
00000170: 928f e1bc e0d4 30bc 2a47 02bc c603 cdbc
00000180: 710f 25bd b0f9 9fbc 3ddb 20bd aa11 b03c
00000190: 093a ed3c 441e 14bd ab27 6ebd 7e69 353d
000001a0: dadf 18bd 8fab 3a3d 3a28 df3c 643b a03c
000001b0: 6ff7 79bc 68cd 2a3d 23d3 3cbd 77fb 32bd
000001c0: fdb9 bb3c 8080 4db8 939c 3dbc a2fb 02bd
000001d0: 7669 fabc 5c6b c33b 3dd1 4fbd ba48 8e3b
000001e0: cd35 91bc 4b1b 0b3d be60 943c 2693 573d
000001f0: c095 c63a 16bb e83c 8e02 29bd 662d d5bc
00000200: f9db a13c e878 553d dc3b 2a3d 1c62 103d
00000210: 2ee1 12bd 3ffa d4bc 687b cd3c a4ed 40bd
00000220: 0ad3 38bc 65c0 0fbc bbe9 833c 6d51 2ebd
00000230: 6216 1c3c 8fd3 8b3c d64f fdbc 50f7 18bd
00000240: 99bc ad3c e445 adbc b29e ec3c 4933 4dbd
00000250: a60d e9bb b90a 5b3b 267f 283d 8074 633c
00000260: 5d25 903c c8f5 733c 23bf 4ebd 9e55 d33c
00000270: 6b1c 573c e622 3dbc d0cf 2a3b 48b9 32bd
00000280: 669e 69bc 5484 46bb dd46 f93c 92f1 a83b
00000290: d02c bd3c 8645 0c3c b48d b7bc 8d90 dbbc
000002a0: 667b 833d 3130 20bd f768 353d b89b 37bd
000002b0: 2c50 023d 37cb 2abd c59f 83bd 87a0 82bd
000002c0: 812f 8abd 3380 9e3c 5497 64bd 9cc9 663d
000002d0: 746b 963d ea9c 1bbb 1c85 86bd 455b 463d
000002e0: 092e 84bd ea81 2b3d f030 14bd 78d2 0b3d
000002f0: fbb5 bdbc e94c 28bd a161 aebc a62f 97bb
00000300: c358 11bd 6435 963b 3b41 b9bc ae23 1b3c
00000310: 2504 ef3c 962c 1dbd 78d2 5e3a 433d 9ebb
00000320: 2ad3 1d3d b1e7 39bb 711e 0e3d 6011 d93c
00000330: c7e8 313c 9925 853c e321 d9bc bce2 033d
00000340: df61 3ebd 6264 6c3c 51ad f43c 858f 23bd
00000350: 749b ba3c 8faa 66bc 80fa 993a 100e bc3b
00000360: a138 a63c b3b5 313d 9433 943b 6dfd 003d
00000370: f664 a33c 40b0 a9bc 39cb 23bd 1d16 41bd
00000380: 72a2 1a3d 926b 3c3c 0eac 21bd ccec 913c
00000390: 9d97 fe3c fe0e 133d 2062 31bd f357 18bd
000003a0: 35fa 843b 06e7 0dbd c99d f1bc a48a 053d
000003b0: 1749 a0ba 056a 023d 00e4 1d3c ce9e 3d3d
000003c0: 8281 49bd 132a 37bd 867d 57bd 2706 3abd
000003d0: 836e 07bd 739b a03c d1c4 8d3c 440e 153d
000003e0: 8e69 a5bc 3d18 143d 31e7 56bd cefe 39bd
000003f0: 3f8f 54bd 91c5 97bc df8a 70bd 0b9a 5a3d

weight f4 [51, 1]
0.015678737 0.03645373 0.033662863 0.02233093 0.04136741 0.04757495 0.03093582 0.024249533
0.052028447 0.060897477 0.022575296 -0.03964499 -0.013058317 0.052338332 0.020541191 0.01448801
-0.038476005 -0.026480325 0.004968878 -0.024559205 0.04766249 -0.028843526 0.03897488 0.009934996
0.0074445438 0.056963712 -0.01517059 0.02592332 -0.018838448 0.010922879 -0.021988558 0.030981395
0.05623036 -0.02860747 -0.032879576 -0.017435033 -0.02108902 0.03376856 0.041014884 -0.006952769
0.013462423 0.010881681 0.03726051 0.02490375 0.012625475 0.012365157 0.030905498 0.009436427
0.007909395 -0.0041581756 -0.0029413437
00000000: b270 803c 8250 153d 12e2 093d 5bef b63c
00000010: e070 293d f3dd 423d 1e6d fd3c f5a6 c63c
00000020: c81b 553d a26f 793d d4ef b83c c962 22bd
00000030: 8df2 55bc b860 563d 0046 a83c 1e5f 6d3c
00000040: 0499 1dbd 44ed d8bc f8d1 a23b 6330 c9bc
00000050: be39 433d 4249 ecbc 20a4 1f3d 65c6 223c
00000060: 5cf1 f33b c852 693d 118e 78bc 245d d43c
00000070: 1753 9abc e0f5 323c 5921 b4bc b2cc fd3c
00000080: ce51 663d 375a eabc bcac 06bd ead3 8ebc
00000090: e1c2 acbc e750 0a3d 39ff 273d 0ed4 e3bb
000000a0: 7f91 5c3c 1449 323c 7a9e 183d f302 cc3c
000000b0: 15db 4e3c 3a97 4a3c 872d fd3c 3e9b 1a3c
000000c0: 6896 013c 4e41 88bb 8fc3 40bb

weight f4 [174, 1]
4.787583e-05 0.03495308 0.02121353 -0.035636913 0.052670036 0.04335056 0.0055657593 0.0042545013
0.008104028 -0.021258753 -0.0075767552 0.04439862 -0.02932896 -0.031249816 0.011275172 -0.007986688
-0.0054933275 -0.022960829 -0.016299056 0.013765502 0.010399133 0.022413816 -0.030829305 0.014160833
0.04983334 -0.030563891 0.04353802 0.022735994 0.036110308 -0.004603756 -0.0070992606 -0.015057741
-0.002479602 -0.007481539 0.037742496 0.004658885 -0.023536617 -0.008019269 0.01892509 -0.030568812
0.020937772 -0.01888033 0.014879953 -0.036713503 0.011614122 0.028469075 -0.041128397 -0.034464505
-0.016741535 0.037684817 -0.041619558 -0.03150414 -0.021371465 -0.011607613 -0.017972136 0.0068221283
-0.019997453 0.045719158 0.006130115 -0.007569295 0.007629915 0.043340303 0.013006345 0.021657046
0.069852754 -0.006065516 0.012867359 0.022082748 0.0028340472 0.04060968 -0.044908307 0.06300041
0.0032079455 -0.010536091 0.020742709 -0.01795641 -0.0063084858 0.03977262 0.01195571 -0.007026209
-0.0015251058 0.026989074 -0.0077135847 0.032088306 -0.022364523 0.040256437 -0.0024916083 -0.00871242
-0.0009326418 -0.033403095 -0.048992395 -0.022091756 0.009449031 0.007751694 0.007816013 0.0021689641
-0.005481565 0.014777676 -0.003763423 -0.028074699 0.024019072 -0.053293515 -0.025307061 0.031103013
-0.034378193 0.0064237043 -0.04172285 0.023059469 -0.031768747 -0.024056448 -0.041295197 0.052339725
-0.013772369 -0.006904416 -0.038831107 -0.03651469 0.013781118 0.0020423958 -0.016133998 0.023526512
0.02630015 -0.01258949 -0.016965179 0.009782227 0.022386188 0.033381592 0.032259434 0.013785431
-0.024099112 0.010586478 -0.010567316 0.0034670394 -0.043374877 -0.022653542 0.0025922447 -0.030075708
-0.008864106 0.04530233 -0.008209873 0.05518518 -0.003679071 0.03460902 -0.05010332 0.024801921
-0.0008975685 0.030119877 0.052175213 0.0047865114 0.02511804 0.043741763 0.003927173 -0.012104127
0.027189339 0.05035024 -0.013878644 0.017719489 0.038622383 -0.012779271 -0.03096618 0.041827653
-0.0053814403 0.017126597 -0.048646964 -0.013510146 0.0038747315 -0.027224693 0.0444041 -0.02289202
-0.005715544 -0.036277954 0.056005828 -0.016587233 -0.009999547 0.033276238
00000000: 48ce 4838 f62a 0f3d ffc7 ad3c 03f8 11bd
00000010: 89bc 573d 5b90 313d f960 b63b 5869 8b3b
00000020: c2c6 043c d626 aebc 6e46 f8bb 54db 353d
00000030: 4a43 f0bc 9dff ffbc 80bb 383c 99da 02bc
00000040: 5f01 b4bb 5918 bcbc 9985 85bc b388 613c
00000050: 2061 2a3c 2e9d b73c bd8d fcbc d702 683c
00000060: 0b1e 4c3d 2061 fabc ec54 323d d640 ba3c
00000070: 67e8 133d 1bdb 96bb eaa0 e8bb beb4 76bc
00000080: d180 22bb b327 f5bb e097 1a3d 8fa9 983b
00000090: ddcf c0bc 4163 03bc ca08 9b3c 726b fabc
000000a0: b185 ab3c ecaa 9abc 0ccb 733c e660 16bd
000000b0: 2949 3e3c fa37 e93c 4076 28bd a72a 0dbd
000000c0: 8b25 89bc 655b 1a3d 4579 2abd 7c0a 01bd
000000d0: 3613 afbc dc2d 3ebc 4d3a 93bc 298c df3b
000000e0: b3d1 a3bc 0344 3b3d 22df c83b d907 f8bb
000000f0: 5e04 fa3b 9a85 313d 9118 553c 1e6a b13c
00000100: f60e 8f3d 3cc1 c6bb 9ed1 523c e1e6 b43c
00000110: 6cbb 393b 5656 263d c6f1 37bd 5c06 813d
00000120: 653c 523b 929f 2cbc 9dec a93c 5219 93bc
00000130: 6ab7 cebb 9de8 223d e2e1 433c 1d3c e6bb
00000140: 0fe6 c7ba 3118 dd3c 3dc2 fcbb 076f 033d
00000150: ce35 b7bc efe3 243d 404a 23bb 8abe 0ebc
00000160: 887c 74ba afd1 08bd 40ac 48bd c5f9 b4bc
00000170: 1cd0 1a3c ec01 fe3b bc0e 003c 2e25 0e3b
00000180: b39e b3bb 111e 723c c3a3 76bb e9fc e5bc
00000190: a5c3 c43c 4d4a 5abd c150 cfbc bfcb fe3c
000001a0: 26d0 0cbd f07d d23b 94e5 2abd 36e7 bc3c
000001b0: f21f 02bd 0712 c5bc 2725 29bd 2e62 563d
000001c0: 81a5 61bc 703e e2bb 5e0d 1fbd 6d90 15bd
000001d0: 33ca 613c b7d9 053b 722b 84bc acba c03c
000001e0: 6a73 d73c 2644 4ebc 8ffa 8abc a245 203c
000001f0: 3d63 b73c 23bb 083d 7822 043d 4adc 613c
00000200: 806b c5bc e872 2d3c 8922 2dbc 4537 633b
00000210: dba9 31bd ec93 b9bc a6e2 293b 5561 f6bc
00000220: c13a 11bc f08e 393d b482 06bc db09 623d
00000230: 921c 71bb 30c2 0d3d 2439 4dbd 662d cb3c
00000240: cd4a 6bba f6bd f63c adb5 553d 2bd8 9c3b
00000250: 59c4 cd3c 902a 333d 84af 803b 6350 46bc
00000260: 2dbc de3c 0e3c 4e3d 4163 63bc 7628 913c
00000270: 8132 1e3d 2660 51bc c9ac fdbc 7953 2b3d
00000280: cb56 b0bb 144d 8c3c 0a42 47bd a959 5dbc
00000290: 35ef 7d3b 5206 dfbc 13e1 353d 0c88 bbbc
000002a0: 7549 bbbb 3198 14bd 5e66 653d f3e1 87bc
000002b0: 24d5 23bc aa4c 083d
